model.pth (torch, 16787 bytes, 4 tensors)

linear1.weight f4 [256, 11]
0	0x3dcd9f9d	0.100402094
1	0x3e82d9bf	0.25556752
2	0xbf1e0617	-0.6172804
3	0xbebc82c8	-0.36818528
4	0xbeaeeb1e	-0.34163755
5	0x3e35925f	0.17731617
6	0x3e2deb16	0.1698421
7	0x3e1f352d	0.15547629
8	0x3e1653b0	0.14680362
9	0xbe4085d1	-0.18801047
10	0xbea5f455	-0.32412973
11	0xbef9730f	-0.48720595
12	0x3e49b967	0.19699632
13	0xbda99d08	-0.082819045
14	0xbebf5e74	-0.3737675
15	0x3e15ee92	0.14641789
16	0x3dc3ef46	0.09567122
17	0x3e6f7b78	0.23386943
18	0xbf0ebbde	-0.5575541
19	0x3d092ca4	0.03348984
20	0x3e70586d	0.23471232
21	0x3e0e2427	0.13880979
22	0x3ddbe268	0.10736543
23	0x3da18066	0.07885818
24	0xbeb44dff	-0.35215756
25	0x3eff8caf	0.4991202
26	0xbed977d4	-0.42474234
27	0xbe51b51f	-0.20479248
28	0x3edb2349	0.42800358
29	0xbebd0b75	-0.36922804
30	0x3e971cf7	0.29514286
31	0xbe9f21c5	-0.31080452
32	0xbe9c16c9	-0.30486134
33	0xbe56ba29	-0.20969452
34	0x3e112a19	0.14176215
35	0x3e9282f1	0.28615525
36	0x3d4b9ade	0.04970824
37	0x3e0595ea	0.13045469
38	0x3eb1488d	0.34625664
39	0xbd02a1d2	-0.031892605
40	0x3d8bbaf4	0.06822768
41	0xbf1d4612	-0.61435044
42	0xbe900451	-0.28128293
43	0x3dc607af	0.09669434
44	0x3e8b0cca	0.27158195
45	0x3e5722dd	0.21009393
46	0x3db0142c	0.085975975
47	0xbeb7f532	-0.35929257
48	0xbd80e23e	-0.06293152
49	0xbdcf12ac	-0.10110983
50	0xbe9618bf	-0.29315755
51	0x3d87f270	0.06638038
52	0xbd801200	-0.06253433
53	0xbe52adad	-0.20574065
54	0x3e55e40a	0.20887771
55	0x3db40fe0	0.087920904
56	0x3db61aba	0.088918164
57	0x3dc5a303	0.09650233
58	0x3bf0c507	0.0073477062
59	0xbe0b2246	-0.13587293
60	0xbd9f3179	-0.07773108
61	0xbe3003c6	-0.1718894
62	0xbdbe2885	-0.09285072
63	0x3cc44575	0.023958901
64	0xbb4d2c07	-0.003130676
65	0x3da191cc	0.07889137
66	0x39c101f3	0.0003681328
67	0xbf77ab27	-0.9674553
68	0x3f435616	0.7630323
69	0xbe3ab858	-0.18234384
70	0xbe09e097	-0.1346458
71	0x3dff519a	0.12466736
72	0xbe25a38f	-0.16175674
73	0xbf06589c	-0.5247896
74	0xbe765c0c	-0.2405855
75	0x3d86c983	0.06581404
76	0xbd7af903	-0.061272632
77	0x3d9d7f21	0.076902635
78	0x3e09e2fc	0.13465494
79	0xbf60c1e0	-0.8779583
80	0xbde436fc	-0.111433
81	0x3eec5ec1	0.46166041
82	0xbea45ead	-0.32103482
83	0x3e2bab16	0.16764483
84	0xbcb6e3b5	-0.022325376
85	0xbe918b89	-0.2842677
86	0x3ec59534	0.38590395
87	0xbeb789c8	-0.35847306
88	0x3ebbede9	0.3670495
89	0x3e96b50a	0.29434997
90	0xbf83343e	-1.0250318
91	0x3e702aa4	0.23453766
92	0xbea16535	-0.31522527
93	0x3e3f5abc	0.18686956
94	0xbf3242f2	-0.696334
95	0xbe420d36	-0.18950352
96	0x3d5bb995	0.05364378
97	0xbe0cdd70	-0.13756347
98	0x3ef59e69	0.4797242
99	0x3cf62edf	0.030051647
100	0xbea63c29	-0.32467774
101	0xbfa59e83	-1.2938999
102	0xbee61119	-0.4493492
103	0x3e868d2a	0.26279575
104	0xbf2a8de9	-0.6662279
105	0x3f1f6ff2	0.6228019
106	0xbee8dee1	-0.45482543
107	0x3e66e16e	0.22546932
108	0xbf5ebf3c	-0.8701055
109	0x3e39f1e1	0.18158676
110	0x3dc9500f	0.09829723
111	0x3d748cd3	0.059704613
112	0x3d93d58a	0.07218464
113	0x3e61a0ac	0.22033948
114	0xbeb0bfdb	-0.34521374
115	0x3ed34872	0.4126621
116	0xbef697d6	-0.48162717
117	0xbe47ba8f	-0.1950476
118	0x3ea7025b	0.32618985
119	0xbecb072b	-0.39653906
120	0x3f1773fd	0.5916136
121	0xbdffce91	-0.12490571
122	0x3e8ef38d	0.2792019
123	0xbe0480db	-0.1293978
124	0xbe808adc	-0.2510594
125	0xbe672614	-0.2257312
126	0x3e0c6dd8	0.13713777
127	0xbd95edcd	-0.073207475
128	0xbd9337a9	-0.07188351
129	0xbdef69f1	-0.116901286
130	0xbe401209	-0.1875688
131	0x3c5ebef2	0.01359533
132	0x3eb919c9	0.36152485
133	0xbd2cc643	-0.042181265
134	0x3e9c352b	0.30509314
135	0x3ce53d85	0.027983436
136	0xbead0874	-0.33795512
137	0xbf13f50e	-0.577958
138	0xbe4fe56b	-0.2030236
139	0xbdff1636	-0.12455408
140	0x3e3d2e88	0.18474782
141	0x3e3403ea	0.17579618
142	0x3e32bd99	0.17455138
143	0x3e833bd3	0.2563158
144	0xbee131b5	-0.43983236
145	0x3f3a6135	0.72804576
146	0x3e73f5c2	0.23824218
147	0xbe7b6c37	-0.24553
148	0xbf695457	-0.9114432
149	0x3e28b385	0.16474731
150	0xbe0061af	-0.12537263
151	0xbe302634	-0.17202073
152	0x3e8ad1a7	0.27113077
153	0xbe93443a	-0.2876299
154	0xbda0813b	-0.07837149
155	0x3ee0d251	0.4391046
156	0x3f0d50f7	0.5520167
157	0xbe5b6775	-0.21426184
158	0xbe44bdd8	-0.19213045
159	0x3e5c4a47	0.2151271
160	0x3d25751f	0.0403949
161	0xbcb0d156	-0.021584194
162	0x3cb4049c	0.021974854
163	0xbea35b1d	-0.3190545
164	0xbf47c1b0	-0.7802992
165	0x3e83e0c7	0.2575743
166	0x3e2702ee	0.16309711
167	0x3e8d99ad	0.27656308
168	0x3e85b84f	0.2611718
169	0xbe92805b	-0.28613552
170	0xbefb85da	-0.49125558
171	0x3db4c712	0.08827032
172	0xbe7f2aea	-0.24918714
173	0x3e857eae	0.2607321
174	0x3f301b3d	0.6879156
175	0xbc2c372a	-0.010511199
176	0xbe395f72	-0.18102816
177	0x3e1d7419	0.15376319
178	0xbf8cf899	-1.1013366
179	0x3f097d1e	0.5370654
180	0xbd46b08d	-0.048508216
181	0x3ea96861	0.33087447
182	0xbefdf02c	-0.495973
183	0xbe897802	-0.2684937
184	0x3e08b05f	0.1334853
185	0xbe25f2de	-0.16205928
186	0x3f15967f	0.58432764
187	0x3f3c8db9	0.7365375
188	0x3d67472e	0.056464367
189	0xbef1caca	-0.47225028
190	0x3e9fd2d3	0.31215534
191	0xbec3a75b	-0.3821362
192	0xbb8c5963	-0.0042831167
193	0x3d9616ce	0.073285684
194	0xbe963ae2	-0.293418
195	0x3eb9eaae	0.3631186
196	0x3ccec7ef	0.02524182
197	0xbe06a31a	-0.13148156
198	0x3f1bcd22	0.6085988
199	0x3e989df6	0.29808015
200	0xbf6ca4c6	-0.92438924
201	0x3e57bd3d	0.21068282
202	0xbb8afde3	-0.0042416914
203	0xbe9378a5	-0.28802982
204	0xbdb67abf	-0.08910131
205	0x3d231a3b	0.039819937
206	0x3e70c3ee	0.23512241
207	0x3eedb9b0	0.4643073
208	0x3e9ac865	0.30231014
209	0x3dddca15	0.1082956
210	0xbf2142bc	-0.62992454
211	0x3d818950	0.063250184
212	0xbef49e93	-0.47777233
213	0x3f0ec35d	0.5576685
214	0x3f1b6cd3	0.6071293
215	0xbef4e436	-0.4783036
216	0xbf7eb726	-0.9949821
217	0x3dde9657	0.10868519
218	0x3d579954	0.05263646
219	0xbf89fbb6	-1.0779941
220	0x3e6000a9	0.21875252
221	0x3cdd5f40	0.027022958
222	0xbdd0bee1	-0.10192657
223	0xbe702c82	-0.23454478
224	0xbe8011d8	-0.25013614
225	0x3efaaf10	0.48961687
226	0x3ee7007c	0.45117557
227	0x3daa529f	0.0831654
228	0x3e022f54	0.12713367
229	0xbf317e8f	-0.6933374
230	0xbf47a97d	-0.77992994
231	0xbdca0159	-0.09863538
232	0xbea3dbd5	-0.32003656
233	0xbc07913a	-0.008274371
234	0x3b1d61a4	0.0024014497
235	0xbe83edb4	-0.2576729
236	0x3dd2458a	0.1026717
237	0x3e20607c	0.15661806
238	0xbe46f1d0	-0.19428182
239	0xbdc27cc1	-0.09496451
240	0xbd2fff60	-0.042968154
241	0xbedefd9b	-0.4355286
242	0x3c2b3795	0.0104502635
243	0xbd51f1ca	-0.05125598
244	0xbea175e8	-0.31535268
245	0x3f281b01	0.65666205
246	0xbe6d6490	-0.23182893
247	0x3d7d52d9	0.061846588
248	0xbe4c5aed	-0.1995656
249	0xbef0a115	-0.46997896
250	0x3ec669aa	0.3875249
251	0xbf41842a	-0.7559229
252	0xbeffb908	-0.49945855
253	0xbe7ca6a2	-0.2467294
254	0x3daa6b86	0.0832129
255	0xbe59eab6	-0.21280941

linear1.bias f4 [256]
0	0x3a514eaa	0.0007984439
1	0x3ea2b4e5	0.31778637
2	0xbe01b37e	-0.12666127
3	0xbe5ef350	-0.21772504
4	0xbf1a71d6	-0.6032995
5	0xbed52f37	-0.41637585
6	0x3eb00284	0.3437692
7	0xbe44ab34	-0.19205934
8	0xbdffc2b9	-0.12488312
9	0x3e3760b5	0.17907985
10	0xbe21f33e	-0.15815446
11	0xbeeeec11	-0.4666448
12	0xbf034cf9	-0.51289326
13	0x3cc6c7cc	0.024265192
14	0xbe993ace	-0.29927677
15	0xbeadafec	-0.3392328
16	0xbe344214	-0.17603332
17	0xbdd5c139	-0.10437245
18	0xbed36179	-0.41285303
19	0x3eb55972	0.35419804
20	0x3d60a0d4	0.054840878
21	0xbe2db590	-0.16963792
22	0xbe05e848	-0.1307689
23	0xbe2849e1	-0.16434433
24	0xbf006763	-0.50157756
25	0x3ddbd923	0.10734775
26	0x3eceecb4	0.40414965
27	0xbe114a73	-0.14188556
28	0xbc7cd1c7	-0.015430874
29	0xbe00f288	-0.12592518
30	0xbeb15bd8	-0.34640384
31	0x3d8ce34e	0.068792924
32	0x3eab5e19	0.33470228
33	0xbd8abafb	-0.06773945
34	0xbdda2142	-0.10650875
35	0xbe038a94	-0.12845832
36	0xbf0054ba	-0.5012928
37	0xbe1b5399	-0.15168609
38	0xbd8be0fd	-0.068300225
39	0xbeac3afb	-0.3363875
40	0xbec77524	-0.3895656
41	0xbe88cae2	-0.26717287
42	0x3f224fa4	0.6340277
43	0x3d5818a3	0.05275787
44	0xbd9194d0	-0.07108462
45	0x3ebb3dc0	0.3657055
46	0xbe9f6e3c	-0.3113879
47	0xbe348f0e	-0.17632696
48	0xbeedbb66	-0.46432036
49	0xbe58b4ab	-0.2116267
50	0x3cbef4f7	0.023310168
51	0xbe3ec870	-0.18631148
52	0xbe209a0b	-0.15683763
53	0xbee2c3c8	-0.44289994
54	0xbc40a912	-0.0117590595
55	0xbef75bd4	-0.48312247
56	0x3db65ae5	0.089040555
57	0xbe7bcd0a	-0.24589935
58	0xbe75a7dc	-0.23989815
59	0xbe9a9e81	-0.30199054
60	0xbe1a5cf5	-0.15074523
61	0xbe7d5bf5	-0.2474211
62	0xbec75cf7	-0.38938114
63	0xbea90549	-0.33011845
64	0xbf1d834f	-0.61528486
65	0xbebe5525	-0.37174335
66	0x3ef918c8	0.4865172
67	0xbe5f98c9	-0.21835627
68	0xbe0c2ed3	-0.13689737
69	0xbd831d08	-0.06402022
70	0xbe092302	-0.1339226
71	0xbb45554a	-0.003011065
72	0xbd6df32d	-0.05809324
73	0xbef5740d	-0.47940102
74	0xbe95ca1d	-0.29255763
75	0xbd8cbebb	-0.068723164
76	0x3ed05562	0.40690142
77	0xbe2a6c45	-0.16642864
78	0x3d1c0159	0.038087223
79	0xbeac30d6	-0.3363101
80	0xbe5b8f8d	-0.21441479
81	0xbeab4a6e	-0.33455223
82	0xbed6aedc	-0.41930282
83	0xbdc9d355	-0.098547615
84	0x3e329cc6	0.17442617
85	0x3da3ff2e	0.08007656
86	0x3db5fc18	0.08885974
87	0xbeed0158	-0.46290088
88	0xbc9a95cf	-0.018870262
89	0x3d1b4542	0.037907846
90	0xbddebdb4	-0.10876027
91	0xbe9e36b6	-0.30901116
92	0xbeca9660	-0.39567852
93	0xbeda54fb	-0.4264296
94	0xbea4000d	-0.3203129
95	0xbebe2d10	-0.37143755
96	0xbd87a0ed	-0.06622491
97	0xbec7bf7d	-0.3901328
98	0x3cdd8cf8	0.027044758
99	0xbde3d950	-0.111254334
100	0xbdbb5675	-0.0914735
101	0xbec79bbe	-0.3898601
102	0xbda325c6	-0.07966189
103	0x3ec74645	0.389208
104	0xbea9de76	-0.33177537
105	0xbe589d1f	-0.21153687
106	0xbe95f36a	-0.29287273
107	0xbeb8d4ff	-0.36100003
108	0x3e539f9c	0.20666355
109	0xbe96adb6	-0.29429406
110	0x3e2ac2c6	0.16675863
111	0xb84761fa	-4.7536545e-05
112	0x3edcc26e	0.43117088
113	0x3e0ebfb9	0.13940324
114	0x3e55b24e	0.20868799
115	0xbed08f5c	-0.40734375
116	0x3e824137	0.2544038
117	0xbde2b30b	-0.11069306
118	0xbe828ae2	-0.25496584
119	0xbe96db5d	-0.29464236
120	0xbe8e5ddb	-0.2780598
121	0xbdc9fff3	-0.098632716
122	0xbe8d9943	-0.27655992
123	0xbe871871	-0.26385835
124	0x3bae6a11	0.0053227027
125	0xbe4a50f1	-0.19757439
126	0x3db3c584	0.087779075
127	0xbe740882	-0.2383137
128	0xbecab24a	-0.3958915
129	0xbda7192c	-0.08159098
130	0xbe26d26c	-0.16291207
131	0xbe816376	-0.25271195
132	0xbee7d065	-0.4527618
133	0x3dc7a28b	0.097477995
134	0xbec37748	-0.38176942
135	0xbeffcba8	-0.49960065
136	0xbb8d5988	-0.0043136515
137	0x3cd50805	0.0260048
138	0xbdfc2bb6	-0.12313025
139	0x3ea9a921	0.33136848
140	0xbeaec417	-0.3413398
141	0xbf16bac5	-0.5887874
142	0xbe591913	-0.21200971
143	0xbdd5bd31	-0.10436476
144	0xbda82e4d	-0.08211956
145	0xbdb019cb	-0.085986696
146	0xbf22e0bd	-0.63624173
147	0xbe114d70	-0.14189696
148	0xbeaa138b	-0.33218035
149	0xbe4e8a2c	-0.20169896
150	0x3ec2a9df	0.38020226
151	0x3e76880c	0.24075335
152	0xbdb7476e	-0.08949171
153	0x3cd37be3	0.02581591
154	0xbedd58af	-0.43231723
155	0xbf0cd9d4	-0.5501988
156	0xbf010cd6	-0.5041021
157	0xbcefc39c	-0.029268079
158	0xbecc9488	-0.3995707
159	0x3e4f646c	0.20253152
160	0x3dcd26f2	0.10017194
161	0xbe9c759d	-0.30558482
162	0xbd93201d	-0.071838595
163	0x3e331a8d	0.17490597
164	0x3e58eb26	0.21183452
165	0x3d517d95	0.051145155
166	0xbe90105d	-0.28137484
167	0xbe4ead0e	-0.20183203
168	0x3e059c0f	0.13047813
169	0xbee620bb	-0.44946846
170	0xbe1e44ba	-0.15455905
171	0x3d60822b	0.054811638
172	0xbebb1fa6	-0.36547583
173	0x3e23ae2c	0.1598441
174	0xbea1572a	-0.31511813
175	0xbee589d6	-0.44831723
176	0xbee2bbf5	-0.44284025
177	0xbe2b8038	-0.1674813
178	0x3e20939b	0.15681307
179	0xbb2193e6	-0.0024654805
180	0xbe14e7ef	-0.145416
181	0xbe1dcc91	-0.15410067
182	0xbd1cc81a	-0.03827677
183	0xbdcc4c40	-0.09975481
184	0xbd03eebc	-0.032210097
185	0xbe468043	-0.19384865
186	0xbe97fa9f	-0.29683396
187	0xbe4f0007	-0.20214854
188	0xbe0cd401	-0.13752748
189	0xbe9e2bca	-0.30892783
190	0xbe92931b	-0.28627858
191	0xbeb506be	-0.35356706
192	0xbed76bb9	-0.42074373
193	0xbdcfa768	-0.10139352
194	0xbecdc2e7	-0.4018776
195	0x3e5001c0	0.20313168
196	0xbf2e41e7	-0.6806931
197	0xbd8e73ba	-0.06955667
198	0xbe74e8b2	-0.23916891
199	0x3c9d82e3	0.01922745
200	0xbf0a4a44	-0.5401957
201	0x3e8083dd	0.25100604
202	0xbd123c84	-0.035702243
203	0xbeb65cee	-0.35617775
204	0x3ec9c3d9	0.39407232
205	0xbe1337d2	-0.14376763
206	0xbdd84f12	-0.105619565
207	0xbeac64f7	-0.3367078
208	0xbef0dcca	-0.4704345
209	0xbec791b7	-0.3897836
210	0x3debf8cd	0.11522064
211	0x3e2499ec	0.16074342
212	0xbbb5dd8c	-0.005550092
213	0xbeb4bea4	-0.35301697
214	0x3dda6994	0.10664669
215	0xbe41aecf	-0.1891434
216	0xbe9b371b	-0.3031548
217	0x3dd141ce	0.102176294
218	0xbed744f5	-0.42044798
219	0x3a8332c4	0.0010009636
220	0x3c8644ac	0.016390167
221	0xbe4d41eb	-0.20044677
222	0xbe84cfd4	-0.2593981
223	0xbebd8b70	-0.37020445
224	0xbe770f3c	-0.24126905
225	0x3e9851a5	0.2974979
226	0xbe5f9e32	-0.2183769
227	0x3fa74004	1.3066411
228	0x3dfb40a9	0.12268192
229	0xbde6180a	-0.11235054
230	0xbd85e96f	-0.065386645
231	0x3e8bf231	0.27333215
232	0xbe8c11c6	-0.2735731
233	0x3e1876cf	0.14889072
234	0xbc909f4d	-0.017654086
235	0xbec536a4	-0.3851825
236	0xbec75fda	-0.38940316
237	0xbde5d5f6	-0.112224504
238	0xbeb4ec16	-0.3533637
239	0xbe473534	-0.19453889
240	0xbe816fed	-0.25280705
241	0xbc41e34c	-0.011833977
242	0x3e58999c	0.21152347
243	0xbe423968	-0.18967211
244	0xbed1c705	-0.40972152
245	0xbe4e7542	-0.20161918
246	0xbe00354c	-0.12520331
247	0xbf2d5e81	-0.67722327
248	0xbe5066fd	-0.20351787
249	0xbdd438d3	-0.10362401
250	0xbedca8af	-0.43097445
251	0xbd221302	-0.03956891
252	0xbdd8478c	-0.105605215
253	0xbf193c72	-0.5985786
254	0xbd2bc142	-0.041932352
255	0xbdd6f262	-0.104954496

linear2.weight f4 [3, 256]
0	0x3bb8036c	0.0056156423
1	0x3e775be1	0.24156143
2	0xbe880520	-0.2656641
3	0xbd0e9d32	-0.034817882
4	0x3da2607a	0.07928558
5	0x3cdcc9c5	0.02695168
6	0x3e53765f	0.20650624
7	0xbe80196b	-0.25019392
8	0xbe3e4a65	-0.18583067
9	0x3ed75732	0.42058712
10	0xbe65d369	-0.22443928
11	0xbc4eb463	-0.01261625
12	0xbd1f8d2f	-0.038953003
13	0x3d6fb509	0.058522258
14	0xbd02c05a	-0.031921722
15	0xbe1a2942	-0.15054801
16	0xbe9dfd22	-0.30857188
17	0xbe5ec2e5	-0.21754034
18	0xbd0bd095	-0.034134466
19	0x3f350e78	0.707252
20	0xbf0c7a05	-0.5487369
21	0xbd1cb0e7	-0.038254645
22	0xbee3ee00	-0.44517517
23	0xbf0801bc	-0.53127646
24	0xbd9aa36a	-0.075507
25	0xbdcd5bbb	-0.10027262
26	0x3ee52bac	0.44759881
27	0xbd9aec71	-0.07564629
28	0x3e7a03e7	0.24415551
29	0x3d2cc255	0.042177517
30	0xbd6979b0	-0.057000816
31	0xbe954e7c	-0.2916144
32	0x3ea3201c	0.31860435
33	0xbee975e8	-0.45597768
34	0xbe811969	-0.252147
35	0xbf1429da	-0.5787636
36	0xbb796638	-0.0038055312
37	0xbdb36d97	-0.08761137
38	0xbde7de93	-0.113217495
39	0x3e4d29d0	0.20035481
40	0xbd84e59b	-0.06489106
41	0xbf56c5aa	-0.8389536
42	0x3f018474	0.5059273
43	0x3e2a4695	0.16628487
44	0xbcb5729c	-0.022149377
45	0x3e817eef	0.25292155
46	0xbd36cfa4	-0.044631615
47	0xbe5886b7	-0.2114514
48	0x3c424df9	0.01185941
49	0xbdbd2b13	-0.092367314
50	0x3ef5e304	0.48024762
51	0xbef2c9bb	-0.47419533
52	0xbf1ff4c4	-0.6248286
53	0xbcffacdd	-0.031210357
54	0xbee1c9c1	-0.4409924
55	0x3cf051bd	0.02933585
56	0x3b380fdc	0.0028085625
57	0x3ca218d1	0.019787224
58	0x3dc9fd6d	0.0986279
59	0xbcd68be2	-0.026189748
60	0xbde87ef2	-0.11352338
61	0xbd0c3f46	-0.03424003
62	0xbebbcc09	-0.36679104
63	0xbbaf7640	-0.0053546727
64	0xbd37db70	-0.044887006
65	0xbbfe01c4	-0.0077516753
66	0x3de8146e	0.11332022
67	0x3daed385	0.08536438
68	0x3df3acfe	0.1189823
69	0xbda3de54	-0.0800139
70	0xbe889f69	-0.2668412
71	0xbe24a1c5	-0.16077335
72	0x3cebfefc	0.02880811
73	0xbc13d9fe	-0.009024141
74	0xbc53c448	-0.012925215
75	0x3d8af0e7	0.0678423
76	0x3ea97a91	0.33101323
77	0xbd91a43d	-0.07111404
78	0xbef3f36a	-0.47646648
79	0xbf1692d3	-0.58817786
80	0xbccb5e01	-0.024825098
81	0xbb2a0de1	-0.0025948214
82	0xbc7c5047	-0.015399999
83	0xbda5e9ec	-0.08101258
84	0x3bed91d0	0.007250048
85	0x3dd14faf	0.102202766
86	0xbe556ef8	-0.20843112
87	0xbcf231cb	-0.029564759
88	0x3f1ab669	0.60434586
89	0x3e81fe55	0.25389352
90	0xbc544f69	-0.012958386
91	0x3e80e7e4	0.25176919
92	0x3e31eba6	0.17375049
93	0x3c531163	0.012882563
94	0x3cb6f06b	0.022331437
95	0xbe2748c9	-0.16336359
96	0xbccca726	-0.024982046
97	0xbe0500f1	-0.1298864
98	0xbe393fa0	-0.18090677
99	0x3e280b4c	0.1641056
100	0x3f13644f	0.57574934
101	0xbc1e7664	-0.009671781
102	0xbe8d107c	-0.2755164
103	0x3e788ffa	0.24273673
104	0xbcbd6a94	-0.02312211
105	0x3e23880a	0.15969864
106	0x3cbb4f3c	0.02286493
107	0xbb0445b5	-0.002018315
108	0x3ece5c44	0.40304768
109	0x3e478852	0.19485596
110	0x3d810b24	0.06300953
111	0x3ee2e694	0.44316542
112	0x3e11d7dd	0.14242502
113	0x3f2f198b	0.6839835
114	0x3d569cd8	0.05239567
115	0xbe6e2dad	-0.23259611
116	0x3e3b6a8d	0.18302365
117	0xbdc07b46	-0.093985125
118	0xbc38bb91	-0.011275188
119	0xbd007af0	-0.031367242
120	0xbe4227f0	-0.18960547
121	0xbd64306a	-0.055710234
122	0xbeacf15c	-0.33777893
123	0xbea57667	-0.32316896
124	0x3ee804f3	0.45316276
125	0xbd0fc06d	-0.03509562
126	0xbe3ee0bb	-0.18640415
127	0xbccf7306	-0.025323402
128	0xbdc42ea0	-0.095792055
129	0xbeba1e07	-0.36351034
130	0x3e0643f2	0.13111857
131	0xbdb44ff2	-0.08804311
132	0xbdeaa3f9	-0.114570566
133	0x3c1732e8	0.009228446
134	0xbdda081b	-0.10646077
135	0xb83ecb0e	-4.548864e-05
136	0x3de01b99	0.10942764
137	0xbea0b2a7	-0.313863
138	0xbe34679f	-0.17617653
139	0x3e176156	0.14783224
140	0xbc9751c4	-0.018471606
141	0xbb092f9e	-0.0020932923
142	0xbd699a67	-0.057032015
143	0xbbe0a3c7	-0.0068554613
144	0xbe2edc6a	-0.17076269
145	0xbe9b6763	-0.30352315
146	0xbd1ef9e6	-0.03881254
147	0xbcc88beb	-0.02448078
148	0xbcac90c2	-0.02106512
149	0xbccec245	-0.02523912
150	0x3ef76dd2	0.48325974
151	0x3ebd17df	0.36932275
152	0x3ec8c133	0.392099
153	0xbf11c9da	-0.56948626
154	0xbd3692f6	-0.044573747
155	0xbe2cc9d5	-0.16873868
156	0x3ceea69b	0.029132178
157	0x3f311cf0	0.6918478
158	0xbc168f6c	-0.009189468
159	0x3e78c43a	0.24293604
160	0x3d6986f8	0.05701348
161	0x3cc58973	0.024113392
162	0xbe035054	-0.12823611
163	0xbee107f1	-0.4395137
164	0xbf6b3b2e	-0.91887176
165	0xbd7e09b6	-0.06202098
166	0x3b4b883a	0.003105654
167	0xbe5a42cb	-0.21314542
168	0x3d83ec6b	0.064415775
169	0x3cba1a8b	0.022717735
170	0xbe87760d	-0.26457253
171	0x3edbed6d	0.4295458
172	0xbe625f56	-0.2210668
173	0x3ecf251d	0.40458003
174	0xbd0348fd	-0.03205203
175	0xbdbd0109	-0.09228713
176	0xbc295ffa	-0.010337824
177	0x3ed8b9b3	0.42329177
178	0x3de831b0	0.11337602
179	0x3b01314d	0.0019713223
180	0xbec47dfd	-0.3837737
181	0xbe5e1a35	-0.21689685
182	0x3cc95f86	0.024581682
183	0xbdb05ba4	-0.08611229
184	0x3e9c235d	0.3049573
185	0xbc8684cb	-0.016420742
186	0xbeab8fde	-0.335082
187	0x3d036a81	0.032083992
188	0xbe48040c	-0.19532794
189	0x3b738979	0.0037160798
190	0x3c1a29b0	0.009409353
191	0x3deed8c1	0.11662436
192	0x3cab1ccb	0.020887753
193	0xbe6572d6	-0.22407088
194	0xbd1ce267	-0.03830185
195	0x3dc33b80	0.09532833
196	0x3d966aeb	0.07344612
197	0xbeb1eb3c	-0.34749782
198	0xbe50a3f6	-0.20375046
199	0x3df36733	0.11884918
200	0xbe11b5cb	-0.14229505
201	0x3f229bea	0.63519156
202	0xbdccd6f0	-0.100019336
203	0xbe44e97b	-0.1922969
204	0x3e1a3571	0.15059449
205	0x3b567b91	0.003272746
206	0xbb7098f5	-0.0036712263
207	0xbc7dae5e	-0.015483467
208	0xbda27270	-0.079319835
209	0xbc9b7c70	-0.018980235
210	0x3ea699bc	0.32539165
211	0xbc66b3a3	-0.014080915
212	0xbe02fca3	-0.12791686
213	0xbe0413ec	-0.12898225
214	0xbf16b5bb	-0.5887105
215	0xbcb57800	-0.022151947
216	0x3c3ebf7f	0.011642336
217	0x3e277d92	0.16356495
218	0x3d0bdcf2	0.034146257
219	0x3ea0c77a	0.3140219
220	0xbcd92996	-0.026509088
221	0xbda88f2f	-0.08230435
222	0xbd57d9a2	-0.052697785
223	0xbd10ca68	-0.03534928
224	0xbd91266e	-0.07087408
225	0x3ec8b832	0.3920303
226	0xbe079bfe	-0.132431
227	0x3eb8339e	0.3597688
228	0x3d0fb413	0.03508384
229	0x3d8d9f12	0.06915106
230	0xbf2bc3d2	-0.67095673
231	0x3e03bb55	0.1286443
232	0xbd299590	-0.0414024
233	0x3e90c2c1	0.28273585
234	0x3e5215c4	0.20516115
235	0xbc8400f1	-0.01611373
236	0xbdf986b8	-0.12183899
237	0xbd3a2b7c	-0.045451626
238	0xbe728207	-0.23682414
239	0xbdb28e2b	-0.08718523
240	0xbf14ac54	-0.5807545
241	0xbb67f43f	-0.0035393385
242	0x3f017407	0.5056767
243	0xbcb3c219	-0.021943139
244	0xbd7c2770	-0.061561048
245	0xbd5c9095	-0.05384882
246	0xbf12bd77	-0.5732035
247	0xbcf24b1a	-0.029576827
248	0xbf205957	-0.6263632
249	0xbc251bce	-0.01007743
250	0x3d2e967f	0.042623993
251	0xbef393d1	-0.47573712
252	0x3ba66740	0.0050782263
253	0xbeab28ec	-0.33429658
254	0x3f0a4026	0.5400413
255	0xbd39f633	-0.04540081

linear2.bias f4 [3]
0	0x3ed2d85f	0.41180703
1	0x3d32a56f	0.0436148
2	0x3d98788d	0.07444868
